Using TensorFlow backend.
[ 48 320   3]
____________________________________________________________________________________________________
Layer (type)                     Output Shape          Param #     Connected to                     
====================================================================================================
cropping2d_1 (Cropping2D)        (None, 48, 320, 3)    0           cropping2d_input_1[0][0]         
____________________________________________________________________________________________________
lambda_1 (Lambda)                (None, 48, 320, 3)    0           cropping2d_1[0][0]               
____________________________________________________________________________________________________
convolution2d_1 (Convolution2D)  (None, 44, 316, 24)   1824        lambda_1[0][0]                   
____________________________________________________________________________________________________
maxpooling2d_1 (MaxPooling2D)    (None, 43, 158, 24)   0           convolution2d_1[0][0]            
____________________________________________________________________________________________________
convolution2d_2 (Convolution2D)  (None, 39, 154, 36)   21636       maxpooling2d_1[0][0]             
____________________________________________________________________________________________________
maxpooling2d_2 (MaxPooling2D)    (None, 38, 77, 36)    0           convolution2d_2[0][0]            
____________________________________________________________________________________________________
convolution2d_3 (Convolution2D)  (None, 34, 73, 48)    43248       maxpooling2d_2[0][0]             
____________________________________________________________________________________________________
maxpooling2d_3 (MaxPooling2D)    (None, 33, 36, 48)    0           convolution2d_3[0][0]            
____________________________________________________________________________________________________
convolution2d_4 (Convolution2D)  (None, 31, 34, 64)    27712       maxpooling2d_3[0][0]             
____________________________________________________________________________________________________
maxpooling2d_4 (MaxPooling2D)    (None, 15, 17, 64)    0           convolution2d_4[0][0]            
____________________________________________________________________________________________________
convolution2d_5 (Convolution2D)  (None, 13, 15, 64)    36928       maxpooling2d_4[0][0]             
____________________________________________________________________________________________________
maxpooling2d_5 (MaxPooling2D)    (None, 6, 7, 64)      0           convolution2d_5[0][0]            
____________________________________________________________________________________________________
flatten_1 (Flatten)              (None, 2688)          0           maxpooling2d_5[0][0]             
____________________________________________________________________________________________________
dense_1 (Dense)                  (None, 1164)          3129996     flatten_1[0][0]                  
____________________________________________________________________________________________________
dense_2 (Dense)                  (None, 100)           116500      dense_1[0][0]                    
____________________________________________________________________________________________________
dense_3 (Dense)                  (None, 50)            5050        dense_2[0][0]                    
____________________________________________________________________________________________________
dense_4 (Dense)                  (None, 10)            510         dense_3[0][0]                    
____________________________________________________________________________________________________
dense_5 (Dense)                  (None, 1)             11          dense_4[0][0]                    
====================================================================================================
Total params: 3,383,415
Trainable params: 3,383,415
Non-trainable params: 0
____________________________________________________________________________________________________
None
Epoch 1/3

  256/50054 [..............................] - ETA: 2527s - loss: 0.0134
…
